…
    &lt;p&gt;Other layers: The next ones do very similar things but take as input the feature map from the previous layer. They increase the frequency of the filters (because previous layers shrink spacial dimensions) in order to gain more depth.&lt;/p&gt;
  &lt;/li&gt;
&lt;/ul&gt;

&lt;p&gt;After stacking our layers implementing a Keras Sequential model, this is its summary:&lt;/p&gt;

&lt;pre&gt;&lt;code class=&quot;language-python&quot;&gt;Model: &quot;sequential&quot;
_________________________________________________________________
Layer (type)                 Output Shape              Param #   
=================================================================
conv2d (Conv2D)              (None, 126, 126, 128)     3584      
_________________________________________________________________
max_pooling2d (MaxPooling2D) (None, 63, 63, 128)       0         
_________________________________________________________________
conv2d_1 (Conv2D)            (None, 61, 61, 256)       295168    
_________________________________________________________________
max_pooling2d_1 (MaxPooling2 (None, 30, 30, 256)       0         
_________________________________________________________________
conv2d_2 (Conv2D)            (None, 28, 28, 256)       590080    
_________________________________________________________________
flatten (Flatten)            (None, 200704)            0         
_________________________________________________________________
dense (Dense)                (None, 256)               51380480  
_________________________________________________________________
dense_1 (Dense)              (None, 3)                 771       
=================================================================
Total params: 52,270,083
Trainable params: 52,270,083
Non-trainable params: 0
_________________________________________________________________

&lt;/code&gt;&lt;/pre&gt;

&lt;p&gt;We compiled it using Adam optimization which is a stochastic Gradient Descent method - &lt;strong&gt;Gradient descent&lt;/strong&gt; is an optimi
…
